[net]
batch=1
channels=3
height=224
width=224

[convolutional]
filters=64
size=7
stride=2
pad=1
batch_normalize=1
activation=relu

[maxpool]
size=3
stride=2

[convolutional]
filters=64
size=1
stride=1
pad=1
batch_normalize=1
activation=linear

[route]
layers=-2

[convolutional]
filters=64
size=3
stride=1
pad=1
batch_normalize=1
activation=relu

[convolutional]
filters=64
size=3
stride=1
pad=1
batch_normalize=1
activation=linear

[shortcut]
from=-4
activation=relu

[convolutional]
filters=64
size=3
stride=1
pad=1
batch_normalize=1
activation=relu

[convolutional]
filters=64
size=3
stride=1
pad=1
batch_normalize=1
activation=linear

[shortcut]
from=-3
activation=relu

[convolutional]
filters=128
size=1
stride=2
pad=1
batch_normalize=1
activation=linear

[route]
layers=-2

[convolutional]
filters=128
size=3
stride=2
pad=1
batch_normalize=1
activation=relu

[convolutional]
filters=128
size=3
stride=1
pad=1
batch_normalize=1
activation=linear

[shortcut]
from=-4
activation=relu

[convolutional]
filters=128
size=3
stride=1
pad=1
batch_normalize=1
activation=relu

[convolutional]
filters=128
size=3
stride=1
pad=1
batch_normalize=1
activation=linear

[shortcut]
from=-3
activation=relu

[convolutional]
filters=256
size=1
stride=2
pad=1
batch_normalize=1
activation=linear

[route]
layers=-2

[convolutional]
filters=256
size=3
stride=2
pad=1
batch_normalize=1
activation=relu

[convolutional]
filters=256
size=3
stride=1
pad=1
batch_normalize=1
activation=linear

[shortcut]
from=-4
activation=relu

[convolutional]
filters=256
size=3
stride=1
pad=1
batch_normalize=1
activation=relu

[convolutional]
filters=256
size=3
stride=1
pad=1
batch_normalize=1
activation=linear

[shortcut]
from=-3
activation=relu

[convolutional]
filters=512
size=1
stride=2
pad=1
batch_normalize=1
activation=linear

[route]
layers=-2

[convolutional]
filters=512
size=3
stride=2
pad=1
batch_normalize=1
activation=relu

[convolutional]
filters=512
size=3
stride=1
pad=1
batch_normalize=1
activation=linear

[shortcut]
from=-4
activation=relu

[convolutional]
filters=512
size=3
stride=1
pad=1
batch_normalize=1
activation=relu

[convolutional]
filters=512
size=3
stride=1
pad=1
batch_normalize=1
activation=linear

[shortcut]
from=-3
activation=relu

[avgpool]

[connected]
output=1000
activation=linear

